…
            "=================================================================\n",
            " conv3d_3 (Conv3D)           (None, 75, 46, 140, 128   3584      \n",
            "                             )                                   \n",
            "                                                                 \n",
            " activation_3 (Activation)   (None, 75, 46, 140, 128   0         \n",
            "                             )                                   \n",
            "                                                                 \n",
            " max_pooling3d_3 (MaxPoolin  (None, 75, 23, 70, 128)   0         \n",
            " g3D)                                                            \n",
            "                                                                 \n",
            " conv3d_4 (Conv3D)           (None, 75, 23, 70, 256)   884992    \n",
            "                                                                 \n",
            " activation_4 (Activation)   (None, 75, 23, 70, 256)   0         \n",
            "                                                                 \n",
            " max_pooling3d_4 (MaxPoolin  (None, 75, 11, 35, 256)   0         \n",
            " g3D)                                                            \n",
            "                                                                 \n",
            " conv3d_5 (Conv3D)           (None, 75, 11, 35, 75)    518475    \n",
            "                                                                 \n",
            " activation_5 (Activation)   (None, 75, 11, 35, 75)    0         \n",
            "                                                                 \n",
            " max_pooling3d_5 (MaxPoolin  (None, 75, 5, 17, 75)     0         \n",
            " g3D)                                                            \n",
            "                                                                 \n",
            " time_distributed_1 (TimeDi  (None, 75, 6375)          0         \n",
            " stributed)                                                      \n",
            "                                                                 \n",
            " bidirectional_2 (Bidirecti  (None, 75, 256)           6660096   \n",
            " onal)                                                           \n",
            "                                                                 \n",
            " dropout_2 (Dropout)         (None, 75, 256)           0         \n",
            "                                                                 \n",
            " bidirectional_3 (Bidirecti  (None, 75, 256)           394240    \n",
            " onal)                                                           \n",
            "                                                                 \n",
            " dropout_3 (Dropout)         (None, 75, 256)           0         \n",
            "                                                                 \n",
            " dense_1 (Dense)             (None, 75, 41)            10537     \n",
            "                                                                 \n",
            "=================================================================\n",
            "Total params: 8471924 (32.32 MB)\n",
            "Trainable params: 8471924 (32.32 MB)\n",
            "Non-trainable params: 0 (0.00 Byte)\n",
            "_________________________________________________________________\n"
…
